output copy/CNN/CNN_best_model.pth (torch, 527578 bytes, 10 tensors)

conv1.weight f4 [32, 9, 3]
0	0x3dcf431b	0.10120221
1	0x3e168369	0.14698566
2	0xbd841103	-0.06448557
3	0x3e2d7853	0.16940431
4	0x3b597c94	0.0033185827
5	0x3da71b79	0.08159537
6	0xbd7db1aa	-0.06193701
7	0xbcd2e24f	-0.025742678
8	0x3ddda9fd	0.10823438
9	0xbe50d0e8	-0.20392191
10	0x3e521477	0.20515619
11	0xbd01567e	-0.031576626
12	0x3dbd0c27	0.092308335
13	0x3e26dc1e	0.16294906
14	0x3dbd138c	0.09232244
15	0xbd90a9b1	-0.07063616
16	0x3e0d46d4	0.1379655
17	0x3c313921	0.010816843
18	0xbe104264	-0.14087826
19	0x3b31bfea	0.0027122446
20	0xbdf081d4	-0.11743513
21	0xbd87c3de	-0.066291556
22	0xbdef9a9c	-0.11699411
23	0x3dd4b164	0.10385397
24	0xbe43b0a1	-0.19110347
25	0xbe039847	-0.12851058
26	0xbd99ac18	-0.075035274
27	0xbe03b3b3	-0.12861519
28	0x3c950a16	0.018193286
29	0xbe1a10ef	-0.15045522
30	0x3e2067b2	0.15664557
31	0xbe012202	-0.12610629
32	0x3e802e67	0.25035402
33	0x3d32f7d8	0.043693393
34	0xbe09065f	-0.13381337
35	0x3e21fa59	0.15818156
36	0x3d02874a	0.031867303
37	0x3e2bcdf0	0.16777778
38	0xb99ebe00	-0.0003027767
39	0xbd611e0c	-0.054960296
40	0x3e22ecad	0.15910597
41	0xbd6a19ab	-0.057153385
42	0x3d97c1d9	0.074100204
43	0x3e2f2d30	0.17107081
44	0x3e1fd9ea	0.15610471
45	0xbdcfacab	-0.10140356
46	0x3da25204	0.079257995
47	0x3d9137ed	0.07090745
48	0x3db1a98b	0.08674916
49	0xbe009f73	-0.12560825
50	0xbe190689	-0.14943899
51	0xbdae629e	-0.085149035
52	0xbe213539	-0.15742959
53	0x3e49168c	0.19637507
54	0x3db7f273	0.089817904
55	0x3dd336a6	0.10313158
56	0x3d913133	0.07089462
57	0x3da531d2	0.08066143
58	0x3e7ed757	0.24886833
59	0xbe6c4cae	-0.23076126
60	0x3ca7eed8	0.020499632
61	0xbe17002d	-0.14746161
62	0x3d93075d	0.07179139
63	0x3c675343	0.014118972
64	0x3dbd581f	0.092453234
65	0xbd759603	-0.059957515
66	0x3e30f875	0.17282279
67	0xbdeea5dd	-0.1165273
68	0xbe5487ae	-0.20754883
69	0xbdb6fff2	-0.089355364
70	0x3e4bfd72	0.199209
71	0x3d8c6d4a	0.06856783
72	0x3e5f6596	0.21816096
73	0xbe1969c2	-0.1498175
74	0xbe4c41d8	-0.19946992
75	0xbe0f34a3	-0.13984923
76	0xbdf45538	-0.11930317
77	0x3d94cb65	0.07265357
78	0x3da36722	0.079786554
79	0x3e29197d	0.1651363
80	0xbddbfe04	-0.10741809
81	0xbdc6b485	-0.097024
82	0x3e0c9de6	0.13732108
83	0xbcc84b05	-0.024449835
84	0x3dbdf881	0.09275914
85	0x3d29a81c	0.041420087
86	0x3e47122b	0.19440524
87	0xbe187f8a	-0.14892402
88	0xbd911102	-0.07083322
89	0x3e32afe4	0.1744991
90	0x3de4395c	0.11143753
91	0xbc3242f7	-0.0108802235
92	0x3dda67a5	0.106643
93	0x3e89d7fe	0.269226
94	0xbcac4e21	-0.021033349
95	0xbdaafc97	-0.08348959
96	0x3e5b75f3	0.21431713
97	0xbced3a51	-0.028958471
98	0xbc22a92d	-0.00992803
99	0xbe24195a	-0.16025296
100	0xbdbc47e1	-0.09193397
101	0x3dd53221	0.10409952
102	0x3bbdc35a	0.00579111
103	0xbdd3b3c7	-0.10337024
104	0x3d9a7593	0.07541957
105	0xbdcc7715	-0.099836506
106	0xbdfe8a01	-0.12428666
107	0xbce13b3c	-0.027494065
108	0xbe115d03	-0.14195637
109	0xbdcc2cef	-0.09969508
110	0x3e6e6d3f	0.23283862
111	0xbb069224	-0.0020533884
112	0xbbf43f19	-0.007453811
113	0xbe62373d	-0.22091384
114	0xbdb6cedc	-0.08926174
115	0xbd17d23c	-0.03706573
116	0x3e126fae	0.14300415
117	0xbe08c1da	-0.13355199
118	0xbd4399be	-0.04775404
119	0xbda56c24	-0.08077267
120	0x39e1c93e	0.0004306528
121	0xbda2227c	-0.079167336
122	0xbd18ef2e	-0.037337475
123	0xbdddc25f	-0.10828089
124	0xbdde8b6b	-0.108664356
125	0xbd8db47a	-0.06919189
126	0xbd051655	-0.032492
127	0xbdfffccf	-0.12499391
128	0x3e572fbe	0.21014306
129	0xbc0e61d5	-0.008690317
130	0x3e4680ce	0.19385073
131	0x3ddb7ced	0.10717187
132	0xbe0ae6a4	-0.13564545
133	0x3e249710	0.16073251
134	0xbbbbf43c	-0.005735902
135	0xbdbdc81d	-0.09266684
136	0xbe3c8dd4	-0.18413478
137	0xbe523f17	-0.2053188
138	0x3d407ad4	0.046992138
139	0x3b7ef8ee	0.0038905698
140	0x3dbeab4e	0.093100175
141	0xbe30b21a	-0.1725544
142	0x3cc45786	0.023967516
143	0xbe1bde6f	-0.1522157
144	0xbd158883	-0.03650714
145	0x3d69865e	0.05701291
146	0x3ddfac54	0.10921541
147	0x3e417b55	0.18894704
148	0x3e878533	0.2646881
149	0xbddf187a	-0.108933404
150	0x3ce58968	0.028019622
151	0xbddfe764	-0.10932806
152	0xbd142a0e	-0.03617292
153	0xbe31de7a	-0.17370024
154	0x3e1ca8e1	0.15298797
155	0xbe20bfa8	-0.15698111
156	0x3d9b1d4a	0.07573946
157	0x3d396d00	0.045269966
158	0x3d3a83b6	0.045535766
159	0xbe013f85	-0.12621887
160	0x3e1bdc45	0.15220745
161	0x3ce20954	0.027592339
162	0xbd20e5f6	-0.039281808
163	0xbe798bfb	-0.24369805
164	0x3e2ad038	0.16680992
165	0xbde521df	-0.11188101
166	0xbdbc6b03	-0.09200098
167	0x3ee3c7df	0.44488427
168	0x3cd50187	0.026001705
169	0xbe34f27d	-0.17670627
170	0x3ce940b6	0.02847324
171	0x3d6fb0e2	0.058518298
172	0x3e600d08	0.21879971
173	0xbb83c41f	-0.004021182
174	0xbdb4fd7c	-0.08837411
175	0x3dc64a81	0.09682179
176	0xbdf14104	-0.11779979
177	0x3c0c8bf9	0.008578294
178	0x3d9498ad	0.07255683
179	0xbdb14432	-0.08655585
180	0xbc6e1642	-0.014531674
181	0xbb2db5d3	-0.002650608
182	0x3e08c06c	0.13354653
183	0xbe0a17a8	-0.13485587
184	0x3d103920	0.03521073
185	0x3e4800a0	0.19531488
186	0x3abbeacb	0.0014336942
187	0xbdccde05	-0.10003284
188	0x3d0fcbcc	0.035106465
189	0x3ce4b01a	0.027916003
190	0xbd019ca8	-0.03164354
191	0xbd5b216e	-0.053498678
192	0x3e3d1d1e	0.18468139
193	0x3e469591	0.19392993
194	0x3d88d769	0.06681711
195	0xbd602e30	-0.054731548
196	0xbc003c60	-0.0078268945
197	0xbb3fac40	-0.0029246956
198	0x3d26dd8c	0.040738627
199	0x3d3cd3cb	0.04610042
200	0xbe364265	-0.17798765
201	0xbd664083	-0.056213867
202	0x3e287e83	0.1645451
203	0x3dfda1c3	0.12384369
204	0x3b10c6c4	0.002209113
205	0xbde6532c	-0.112463325
206	0xbde6c75d	-0.11268494
207	0xbe30c737	-0.17263494
208	0xbd841902	-0.06450082
209	0x3d7fb8ac	0.062431976
210	0x3e0046b2	0.12526968
211	0x3dc002f2	0.09375562
212	0xbe29d912	-0.16586712
213	0xbddda24a	-0.1082197
214	0xbcbf9077	-0.023384316
215	0x3e426575	0.18984015
216	0x3d0cf3de	0.034412257
217	0xbd65894f	-0.05603915
218	0x3e01fafb	0.12693398
219	0xbd4efba7	-0.050532963
220	0xbe3937c7	-0.18087684
221	0x3e65402f	0.22387765
222	0xbda3626c	-0.07977757
223	0xbd802cdc	-0.06258556
224	0xbe601e9b	-0.21886675
225	0x3e2d37d2	0.16915825
226	0x3e68a575	0.22719367
227	0x3e2532f9	0.16132726
228	0xbdb5e096	-0.08880727
229	0xbdffe29e	-0.12494396
230	0xbd745f7c	-0.059661373
231	0x3e1569fa	0.14591208
232	0x3da7c744	0.08192304
233	0x3e4bd664	0.19906002
234	0x3daaa457	0.083321266
235	0x3d73640f	0.059421595
236	0x3d142d6a	0.036176123
237	0xbe225623	-0.15853171
238	0xbe39262e	-0.1808097
239	0xbe3293eb	-0.17439239
240	0x3d861d4c	0.06548557
241	0xbde1f4e2	-0.11033036
242	0xbd0b7590	-0.034047663
243	0xbda473d2	-0.080299035
244	0xbc063ab5	-0.008192708
245	0xbddd9434	-0.10819283
246	0xbe5b6d89	-0.21428503
247	0x3d9d6d3f	0.07686853
248	0xbde44f2c	-0.11147913
249	0x3e280d4c	0.16411322
250	0xbced202b	-0.028946003
251	0xbc8fcd86	-0.017554056
252	0x3c42e199	0.011894607
253	0xbe0f1a3a	-0.13974848
254	0xbdaa37c7	-0.0831142
255	0xbe6b493f	-0.2297716

conv1.bias f4 [32]
0	0xbd4d05a0	-0.050054193
1	0x3e301be3	0.17198138
2	0x3e0dc719	0.13845481
3	0x3cca6f9e	0.024711426
4	0xbc846a4b	-0.016163966
5	0xbe0d1967	-0.13779221
6	0x3d412872	0.047157712
7	0x3e362eeb	0.17791335
8	0x3d83c4b9	0.06434006
9	0xbcbf1e27	-0.023329807
10	0xbd8be650	-0.06831038
11	0xbcf36df2	-0.029715512
12	0x3d8b747a	0.068093255
13	0xbc4b76cc	-0.01241846
14	0x3e053981	0.13010217
15	0xbd9ec210	-0.07751858
16	0x3dab548b	0.08365735
17	0x3dad6e57	0.08468311
18	0x3d6615f0	0.056173265
19	0x3dfceaa0	0.12349439
20	0x3dfca00e	0.123352155
21	0x3e1da86a	0.15396276
22	0x3deeed1f	0.11666321
23	0xbdd9d8c3	-0.10637047
24	0xbe11d8cb	-0.14242856
25	0x3de4b31a	0.111669734
26	0x3b274f09	0.0025529286
27	0xbcc29b20	-0.02375561
28	0xbccc538c	-0.024942182
29	0xbc2fb61d	-0.0107245715
30	0x3e05afaa	0.13055292
31	0x3d9ca38c	0.076483816

conv2.weight f4 [64, 32, 3]
0	0xbd59685a	-0.053078033
1	0xbd843231	-0.06454886
2	0xbd475ff1	-0.04867548
3	0xbd6f3397	-0.05839881
4	0x3d804b7a	0.06264396
5	0x3caee3ef	0.021348922
6	0x3d8f7646	0.07004981
7	0xbc89de57	-0.016829653
8	0x3a8d2115	0.0010767306
9	0x3c0d9829	0.008642235
10	0xbdf3782f	-0.118881576
11	0xbc4471af	-0.011989995
12	0xbd1e0e69	-0.03858796
13	0xbda141c7	-0.07873874
14	0xbdd823cb	-0.10553702
15	0x3d99df0c	0.07513246
16	0x3d80fce6	0.062982365
17	0x3ce03cc4	0.027372725
18	0x3d9fb11c	0.07797453
19	0xbd8c654f	-0.068552606
20	0xbd2c9aee	-0.04213994
21	0x3c3f4b15	0.011675616
22	0xbd2f9f73	-0.042876672
23	0xbd3f1d57	-0.04665884
24	0xbdda90a3	-0.106721185
25	0x3c0451ba	0.008076126
26	0xbda3917d	-0.07986734
27	0xbd17d8b9	-0.037071917
28	0x3d8ae1db	0.0678136
29	0xbd8f7789	-0.070052214
30	0xbd89aa6f	-0.06721961
31	0x3d0d4b3f	0.03449559
32	0xbd89ce5c	-0.06728813
33	0xbccb1cca	-0.024794001
34	0x3d99b4c0	0.075051785
35	0xbd811a52	-0.06303848
36	0xbdcc7204	-0.09982684
37	0xbda3656f	-0.07978331
38	0xbd4eeac4	-0.05051686
39	0xbda8454f	-0.082163446
40	0xbdaf5421	-0.08560968
41	0x3ce85660	0.0283615
42	0xbbfe62f2	-0.00776326
43	0xbd395c60	-0.04525411
44	0xbdcc220c	-0.099674314
45	0xbd838f76	-0.064238474
46	0xbd84d23c	-0.064854115
47	0xbd8d86a3	-0.069104455
48	0xbde425c4	-0.11140016
49	0x3c5b878a	0.013399014
50	0xbdc2ff5e	-0.09521364
51	0xbdcf1dc9	-0.10113103
52	0xbdd495c9	-0.10380132
53	0x3cb438f4	0.021999814
54	0xbda1e391	-0.07904733
55	0xbd6a028f	-0.057131346
56	0x3d81e105	0.06341747
57	0x3d04eb53	0.032450985
58	0x3d131f07	0.03591826
59	0xbdf72526	-0.120676324
60	0xbdef51a8	-0.116854966
61	0xbdb4387c	-0.08799836
62	0x3d2b17d8	0.041770786
63	0xbc91a1cb	-0.017777344
64	0xbdc8b3eb	-0.09799942
65	0xbcc03957	-0.023464842
66	0xbde7070c	-0.11280641
67	0xbd4a9f66	-0.04946842
68	0xbd8377ba	-0.064193204
69	0x3d6f2468	0.05838433
70	0x3bc97b43	0.006148727
71	0xbd42a780	-0.04752302
72	0xbd05f6f1	-0.032706205
73	0xbd7decd9	-0.061993454
74	0x3c570638	0.013124041
75	0x3d04aaf2	0.03238959
76	0x3cd51ee2	0.026015703
77	0xbd34db1c	-0.04415427
78	0x3d843477	0.064553194
79	0xbd0ebd3d	-0.03484844
80	0xbd7322c4	-0.059359327
81	0x3d2c80e1	0.042115096
82	0x3d82ce05	0.06386951
83	0x3da81da6	0.0820878
84	0x3be426de	0.006962641
85	0xbd658639	-0.056036208
86	0x3cf4eaf5	0.029897192
87	0x3d43b8fb	0.047783833
88	0xbdebdc6e	-0.11516653
89	0xbd35a1c5	-0.04434373
90	0xbdc098ab	-0.09404119
91	0xbb4352df	-0.0029804034
92	0x3c58d111	0.013233439
93	0xbd173b54	-0.036921814
94	0xbcdb553f	-0.026774047
95	0x3ce220c1	0.027603509
96	0x3d098fe9	0.03358451
97	0xbbabe0f2	-0.0052453214
98	0x3ddb14c2	0.106973186
99	0xbcca87e3	-0.024722999
100	0xbbe74194	-0.007057378
101	0xbc81a4c7	-0.015825642
102	0xbd212c2a	-0.03934876
103	0xbe17946f	-0.14802717
104	0x3dabc9ee	0.083881244
105	0xbcc020b7	-0.0234531
106	0xbc158e58	-0.009128176
107	0x3d8245ed	0.063609935
108	0xbdbac44d	-0.09119473
109	0xbd7f064a	-0.062261857
110	0xbd7abb20	-0.061213613
111	0x3b84dc1d	0.00405456
112	0x39b8caa4	0.00035246194
113	0x3c507029	0.012722054
114	0xbc8c4ad7	-0.01712553
115	0xbe0e3cf5	-0.13890441
116	0xbdc13755	-0.09434382
117	0x3d7ca6c5	0.06168248
118	0x3d82d7d5	0.06388823
119	0x3daae8ce	0.08345185
120	0xbe0034d1	-0.12520148
121	0xbc4e1c8d	-0.012580049
122	0x3cdff125	0.027336666
123	0xbbe04410	-0.006844051
124	0xbe563871	-0.20919968
125	0xbdedb5a9	-0.116069146
126	0xbe12b014	-0.14324981
127	0xbe0caa99	-0.13736953
128	0x3d0cf5b5	0.034414012
129	0x3d24fa5d	0.040277828
130	0x3dea42b4	0.11438504
131	0xbd364b34	-0.044505313
132	0x3cdf4c06	0.02725793
133	0xbd5bfe20	-0.05370915
134	0x3d633419	0.055469606
135	0xbdc5962e	-0.09647785
136	0xbc4873d8	-0.012234651
137	0xbd8f3c0f	-0.06993877
138	0x3d7272d0	0.059191525
139	0x3df1a20c	0.11798486
140	0x3c7f626e	0.015587432
141	0xbdb383d4	-0.087653786
142	0xbd019f42	-0.03164602
143	0x3cf7be63	0.03024215
144	0xbd9f084b	-0.07765254
145	0x3deb4df3	0.11489477
146	0x3d56a2e2	0.05240143
147	0x3d481361	0.048846606
148	0xbc066e49	-0.008205005
149	0xbcae4194	-0.021271504
150	0x3c381d76	0.011237493
151	0x3cf36d7f	0.029715298
152	0x3bb8c633	0.0056388616
153	0xbd33b5a7	-0.04387441
154	0x3dfded2c	0.123987526
155	0x3bb0bf85	0.0053939247
156	0x3cb65f8e	0.02226236
157	0x3d6fe467	0.05856743
158	0x3e8c1dd8	0.2736652
159	0x3c3579fb	0.011076446
160	0xbcf525a5	-0.029925177
161	0xbcfcac75	-0.030843953
162	0xbd5ce775	-0.053931672
163	0xbe040b08	-0.12894833
164	0xbe0fb258	-0.14032876
165	0x3d42c8c7	0.047554757
166	0x3da62a5f	0.081135504
167	0x3ddd537e	0.108069405
168	0xbc60b379	-0.013714665
169	0x3e34294d	0.1759388
170	0x3e0b0d43	0.13579278
171	0xbdddae80	-0.10824299
172	0xbe237146	-0.15961179
173	0xbddeef50	-0.10885489
174	0x3de6ff24	0.11279133
175	0x3dd2e33a	0.10297246
176	0x3d774362	0.060366996
177	0x3dc32890	0.09529221
178	0x3c42f6a2	0.011899622
179	0x3d8cee32	0.0688137
180	0x3c317719	0.010831618
181	0x3d271642	0.04079271
182	0xbddbd49c	-0.107339114
183	0xbde303b3	-0.1108469
184	0xbe03fdf2	-0.12889841
185	0xbcbcab05	-0.023030767
186	0xbd4ce821	-0.050026063
187	0xbd92de1d	-0.07171271
188	0x3cb3e948	0.021961823
189	0x3da285af	0.07935654
190	0x3e075a88	0.13218129
191	0x3db863d0	0.09003413
192	0xbd95d923	-0.07316806
193	0xbddfb248	-0.10922676
194	0xbd55d068	-0.052200705
195	0x3d69b589	0.05705789
196	0xbdc3dc8f	-0.095635526
197	0x3d52bbff	0.05144882
198	0x3da68be0	0.08132148
199	0x3cb015d4	0.021494783
200	0xbd03f860	-0.03221929
201	0x3db105f0	0.086437106
202	0x3cf373a3	0.029718226
203	0x3d8f09be	0.0698428
204	0xbd828dec	-0.06374726
205	0x3d90d54c	0.07071933
206	0xbd625a91	-0.055262152
207	0x3dc42647	0.09577613
208	0xbd9aa6a7	-0.07551318
209	0xbc1a25d6	-0.009408435
210	0x3d6bdd7a	0.057584263
211	0x3d4347eb	0.04767601
212	0x3bf91df4	0.0076024476
213	0x3cbd6fc0	0.023124576
214	0xbd24d360	-0.040240645
215	0xbde95570	-0.11393249
216	0xbc7b1876	-0.015325656
217	0x3da7c5fb	0.08192059
218	0xbd0cf547	-0.034413602
219	0x3d721929	0.059106026
220	0xbc94b9cf	-0.018155007
221	0x3df6ea2a	0.12056382
222	0x3d5eeb62	0.054423697
223	0x3d2ccdb6	0.04218837
224	0xbd472bdc	-0.048625812
225	0xbda5bc6e	-0.08092581
226	0xbd691ec9	-0.056914125
227	0xbe3237ec	-0.17404145
228	0x3dbcb691	0.09214509
229	0xbdc2da7e	-0.0951433
230	0x3d58e176	0.05294939
231	0x3e0bbdd4	0.13646632
232	0x3d67dc10	0.056606352
233	0x3d8d62b3	0.06903591
234	0xbe16d5dd	-0.1473002
235	0x3dd9ea1a	0.106403545
236	0xbc1940e5	-0.009353851
237	0xbdbf2c4e	-0.09334622
238	0x3dcebe1c	0.10094854
239	0xbce80355	-0.028321901
240	0x3b12ad76	0.0022381223
241	0x3cec5bef	0.028852431
242	0xbd8438e8	-0.064561665
243	0xbd9ff8fa	-0.078111604
244	0xbd2ada20	-0.041711926
245	0xbdd919d4	-0.106006294
246	0xbd48170f	-0.048850115
247	0xbddb2843	-0.10701039
248	0xbd4e323a	-0.05034087
249	0xbd5fe0ff	-0.054657932
250	0xbd914d8c	-0.07094869
251	0xbdb00d09	-0.08596236
252	0x3d8b4439	0.06800122
253	0x3dd054b9	0.101724096
254	0xbd97482c	-0.073868126
255	0x3dca6626	0.098827645

conv2.bias f4 [64]
0	0x3cae320c	0.021264099
1	0x3ccb32db	0.024804523
2	0xbdadacad	-0.08480201
3	0xbd85e23a	-0.0653729
4	0x3cd5513e	0.026039716
5	0xbd78da8d	-0.0607553
6	0x3d82e4b9	0.06391282
7	0xbd9dd314	-0.077062756
8	0x3d3b8150	0.04577762
9	0xbdacbff0	-0.08435047
10	0x3d52061c	0.051275358
11	0x3c505620	0.012715846
12	0xbdaf3c6f	-0.08556449
13	0xbd39dc74	-0.045376256
14	0xbd284b2b	-0.04108731
15	0xbc9c9458	-0.019113705
16	0x3d2ff2c3	0.042956125
17	0xbd339eb0	-0.043852508
18	0xbb0a3193	-0.0021086677
19	0xbd6e1c3f	-0.058132406
20	0xbd13dbbc	-0.036098227
21	0x3d5812b3	0.052752208
22	0xbb086843	-0.0020814098
23	0xbdeee15f	-0.1166408
24	0x3c2c3011	0.010509507
25	0xbd117b47	-0.035517957
26	0x3ac6a468	0.0015155198
27	0xbc3a87bf	-0.011384903
28	0xbcb23d68	-0.021757796
29	0xbcff6965	-0.031178186
30	0xbd533576	-0.051564656
31	0x3cfd0b2e	0.03088912
32	0x3d109731	0.035300437
33	0x3d261ad5	0.040552933
34	0x3dd5fb54	0.10448328
35	0x3bb336b0	0.0054691657
36	0x3cb6c4d3	0.02231065
37	0x3c1b7063	0.009487244
38	0xbdab9801	-0.08378602
39	0x3bb9054d	0.005646384
40	0x3d9bf56e	0.076151714
41	0x3b1c4249	0.002384322
42	0xbd5c8949	-0.053841863
43	0x3dbb1c16	0.09136216
44	0x3cc9ee80	0.024649858
45	0x3d8325f7	0.064037256
46	0x3d63ffbc	0.05566381
47	0xbc7d89c7	-0.015474743
48	0xbcdf4132	-0.027252767
49	0x3c93bc17	0.018034024
50	0x3c5b1d30	0.013373658
51	0x3c367619	0.011136555
52	0xbd984ff4	-0.07437125
53	0xbd97d014	-0.07412735
54	0xbddbb421	-0.10727716
55	0xbd4ce410	-0.050022185
56	0xbca71f6a	-0.020400722
57	0x3d756d30	0.059918582
58	0xbd6a5bc9	-0.05721644
59	0xbd937d59	-0.072016425
60	0x3d4c7d47	0.04992416
61	0x3ddbe806	0.10737614
62	0xbd69fb05	-0.057124157
63	0xbcca8e5e	-0.02472609

conv3.weight f4 [128, 64, 3]
0	0x3cbbf630	0.02294454
1	0x3d3e922e	0.046526127
2	0xbc5442cc	-0.012955379
3	0x3cb93415	0.022607842
4	0x3d5ec878	0.0543904
5	0x3cecbd2b	0.028898796
6	0x3cd83588	0.026392713
7	0x3d0e3686	0.034719966
8	0xbd982c31	-0.07430304
9	0x3c781147	0.015140838
10	0x3d2335b6	0.039846145
11	0xbd5b62ef	-0.053561147
12	0xbda7daad	-0.08196006
13	0xbd9123c3	-0.07086899
14	0x3c592b6f	0.013254984
15	0x3d892b72	0.0669774
16	0xbbd67ec0	-0.0065458715
17	0xbceb04ee	-0.028688874
18	0xbb59a5a9	-0.0033210313
19	0xbd9582f1	-0.07300366
20	0xbb29d1b3	-0.0025912344
21	0xbd42581c	-0.04744731
22	0xbd46f680	-0.048574924
23	0xbd57a1e4	-0.052644625
24	0xbd0349b9	-0.03205273
25	0x3d0c938d	0.034320403
26	0x3af4098b	0.0018618567
27	0x3d4f96d8	0.050680965
28	0xbd8e97ea	-0.06962569
29	0xbd43abe7	-0.04777136
30	0x3d260cb2	0.04053945
31	0x3d0f6456	0.035007797
32	0x3d1bd86e	0.0380482
33	0xbd89445a	-0.0670249
34	0x3d04685c	0.032326087
35	0xbd91be36	-0.07116358
36	0xbce88e96	-0.028388303
37	0xbc50702e	-0.012722058
38	0x3c96c7c2	0.018405799
39	0xbc939958	-0.018017456
40	0xbd86994b	-0.06572207
41	0xbd9e8966	-0.077410504
42	0xbced163c	-0.028941266
43	0x3d6146a4	0.05499901
44	0x3d0041fc	0.031312928
45	0x3d123720	0.035697103
46	0xbd6f126c	-0.058367178
47	0xbd84ce06	-0.06484608
48	0x3d2ef319	0.042712305
49	0x3ce1534c	0.02750554
50	0xbd38fc01	-0.045162205
51	0xbba9519d	-0.0051671998
52	0x3d161d3c	0.036648974
53	0x3d49a1c8	0.049226552
54	0xbd824808	-0.06361395
55	0xbcf91367	-0.03040476
56	0x3cb88d66	0.022528362
57	0x3ccd357e	0.025049921
58	0xbbdc472c	-0.0067223515
59	0xbc956285	-0.018235454
60	0x3abc645d	0.0014373172
61	0x3d627dc5	0.055295724
62	0xbd9b40c5	-0.07580713
63	0x3c95f91d	0.018307263
64	0xbd82ac37	-0.063805036
65	0xbb7b6119	-0.0038357435
66	0xbda67265	-0.08127288
67	0x3cffcd56	0.031225841
68	0xbd71616a	-0.058930792
69	0x3b9d1780	0.004794061
70	0xbd3963b5	-0.045261104
71	0x3b417043	0.0029516376
72	0xbd1fa99e	-0.03898012
73	0xbd5e3376	-0.054248296
74	0xbd53a235	-0.051668365
75	0x3d376968	0.044778258
76	0x3c253de0	0.010085553
77	0xbc9846fa	-0.018588532
78	0x3d00def8	0.03146264
79	0xbb925df9	-0.004466769
80	0xbd1f3858	-0.038872093
81	0x3c99374d	0.018703127
82	0xbd2f9f7e	-0.042876713
83	0xbcea890e	-0.028629806
84	0xbd477cfa	-0.04870317
85	0xbb0219ba	-0.001985176
86	0xbda43233	-0.08017387
87	0xbd908558	-0.07056683
88	0x3d03db97	0.03219184
89	0xbd0cecb2	-0.034405418
90	0x3c2022e0	0.00977394
91	0x3d1dbda1	0.038510922
92	0xbd063925	-0.03276934
93	0x3d28d427	0.04121795
94	0xbcd9c87f	-0.026584862
95	0xbc0bd106	-0.008533722
96	0xbd785db6	-0.060636245
97	0x3c8ba7c9	0.01704778
98	0xbd86d8ea	-0.06584342
99	0x3d35e62b	0.04440896
100	0xbcb1d9c0	-0.021710277
101	0xbd24d66e	-0.04024356
102	0xbcc52eb1	-0.024070116
103	0x3c76d041	0.0150643
104	0x3d60a608	0.05484584
105	0x3c45c878	0.012071721
106	0x3d06f353	0.032946896
107	0xbd937b14	-0.0720121
108	0xbc1e84af	-0.009675189
109	0xbd534bc5	-0.05158593
110	0xbd962584	-0.07331374
111	0x3bbbe123	0.0057336255
112	0xbd1ff5d2	-0.039052792
113	0xbb45cde8	-0.0030182544
114	0xbd0db9cc	-0.034601018
115	0xbda73abb	-0.08165499
116	0xbd67cda3	-0.056592595
117	0xbdaa998c	-0.08330068
118	0x3b9decda	0.0048194947
119	0xbd82eb23	-0.06392505
120	0x3d4416e8	0.047873408
121	0x3c97214c	0.018448494
122	0xbd692949	-0.05692414
123	0xbce4d5fb	-0.027934065
124	0xbd9af52e	-0.075662956
125	0x3d360f5b	0.044448238
126	0xbd1d3594	-0.038381174
127	0xbd2dbb04	-0.04241468
128	0xbcbc37cf	-0.02297583
129	0x3cc44c82	0.023962263
130	0xbd077aa2	-0.033075936
131	0x3cb4ec21	0.022085251
132	0x3cb24c9e	0.02176505
133	0xbcdc0bdc	-0.026861124
134	0x3d0033b7	0.03129932
135	0xbd8d58c1	-0.06901694
136	0xbd4f0656	-0.05054315
137	0xbc72634d	-0.014794183
138	0xbc55bb96	-0.013045212
139	0x3c2975f1	0.010343061
140	0x3d138fa0	0.036025643
141	0xbd729c2f	-0.05923098
142	0x3d0f6d84	0.03501655
143	0x3c1b6abc	0.009485897
144	0x3d298520	0.041386724
145	0x3cbd9a85	0.02314497
146	0xbce8037c	-0.028321974
147	0xbcb56074	-0.022140719
148	0xbd833e10	-0.06408322
149	0x3b1d6d73	0.0024021536
150	0x3d7c98b5	0.06166907
151	0x3ccb700c	0.024833702
152	0x3d568a1f	0.052377816
153	0x3c662237	0.014046243
154	0xba93d819	-0.0011279612
155	0xbd008cee	-0.0313844
156	0xbd946b81	-0.07247067
157	0xbcc81151	-0.02442232
158	0x3d4c3f4d	0.049865056
159	0x3d80834e	0.062750444
160	0xbcc8049e	-0.024416264
161	0x3d72a080	0.059235096
162	0x3d1b8021	0.03796399
163	0xbd91a4cd	-0.071115114
164	0xbdc482bb	-0.09595247
165	0xbd133a5f	-0.03594434
166	0xbbef4bb0	-0.007302724
167	0x3ce503bc	0.027955882
168	0x3ca01d6c	0.01954528
169	0x3d043d4f	0.03228503
170	0xbd2f564b	-0.042806905
171	0x3cd9d653	0.026591456
172	0x3a818828	0.0009882497
173	0xbd820ad8	-0.063497245
174	0xbd715894	-0.058922365
175	0x3c87f566	0.016596507
176	0x3d735502	0.05940724
177	0xbd7cd73f	-0.061728712
178	0xbc2fff8c	-0.0107420795
179	0xbdbc2090	-0.09185898
180	0x3d0bda42	0.034143694
181	0x3c0339b3	0.008009362
182	0xbd0ceb0c	-0.034403846
183	0x3cd1a3dc	0.02559083
184	0x3c3037d4	0.010755498
185	0x3cd9c677	0.026583893
186	0x3990e277	0.0002763455
187	0xbc88b319	-0.016686963
188	0x3c3fedb1	0.011714385
189	0x3cc76230	0.024338812
190	0xbd68aca7	-0.05680528
191	0xbce2ef54	-0.027702011
192	0x3cefe81f	0.029285489
193	0xbd525967	-0.051354792
194	0x3d2c78e5	0.04210748
195	0xbd99115e	-0.07474016
196	0x3d464553	0.048405956
197	0xbdfb2b99	-0.12264175
198	0x3d161a95	0.036646444
199	0xbd3acc2a	-0.045604862
200	0x3a3809b1	0.0007020487
201	0x3dd4b480	0.1038599
202	0x3b554a80	0.0032545626
203	0xbdd6b84a	-0.10484369
204	0x3d8abe76	0.06774609
205	0x3ce2d5ee	0.0276899
206	0xbdac99da	-0.08427782
207	0x3ca09e94	0.019606866
208	0xbd51aa9c	-0.051188096
209	0x3c14ccc5	0.009082024
210	0x3ce70b04	0.028203495
211	0xbda0a0a9	-0.078431435
212	0x3d2bcd3e	0.04194378
213	0x3bd5cb02	0.0065244446
214	0xbd6393c4	-0.055560842
215	0x3d6810a4	0.056656495
216	0xbbb0e05d	-0.00539784
217	0xbd80a4bb	-0.0628142
218	0xbcb670b2	-0.022270534
219	0x3cd0f270	0.025506228
220	0x3c7c44e1	0.015397281
221	0xbd81e12e	-0.06341778
222	0x3db43fc3	0.08801224
223	0xbd5360fe	-0.05160617
224	0x3dc7567e	0.09733294
225	0xbca18720	-0.019717753
226	0xbd3d73cb	-0.046253007
227	0x3cc47d34	0.023985483
228	0x3d4cee52	0.050031967
229	0xbd99efe2	-0.07516457
230	0xbcf0a818	-0.029377028
231	0x3cc0772a	0.023494322
232	0x3c690c81	0.014224173
233	0x3d77ee50	0.060530007
234	0x3d856922	0.06514193
235	0xbd442a5e	-0.047891967
236	0x3d2e1dd2	0.042508908
237	0xbd7c72e7	-0.061633017
238	0x3cb64f35	0.022254566
239	0xbd28a74f	-0.041175183
240	0x3b9da7e1	0.0048112725
241	0x3dbd0633	0.09229698
242	0xbbadd6f0	-0.0053051636
243	0xbd1bf05a	-0.038071014
244	0x3c98c2e5	0.01864762
245	0x3acaa862	0.0015461559
246	0x3d8c5011	0.06851209
247	0xbd45c2c9	-0.048281465
248	0xbba82a6b	-0.0051320097
249	0xbd8ce801	-0.06880189
250	0xbcff1f60	-0.03114289
251	0xbdab4148	-0.08362061
252	0xbc8138df	-0.015774189
253	0xbd81c428	-0.06336242
254	0x3d69b73b	0.057059508
255	0xbd04f872	-0.0324635

conv3.bias f4 [128]
0	0xbb8171d3	-0.0039503365
1	0x3c33fe5f	0.01098594
2	0xbdbed516	-0.09317987
3	0xbca3f7cb	-0.020015618
4	0x3dbc2dd5	0.09188429
5	0x3cea6709	0.028613584
6	0x3c004f87	0.007831461
7	0x3d70c53c	0.058781847
8	0x3d143e2d	0.036192108
9	0xbc03805e	-0.008026211
10	0x3d94fd4f	0.07274877
11	0x3c77def5	0.015128841
12	0x3d5a832a	0.053347744
13	0xbd2ae5c9	-0.041723046
14	0xbdc859b1	-0.09782732
15	0xbd1a9d4d	-0.03774767
16	0xbd065c7e	-0.03280305
17	0x3d7b8cb2	0.061413474
18	0x3cdbbde5	0.026823947
19	0xbcd69320	-0.026193202
20	0xbd149cb5	-0.03628226
21	0xbb82cb56	-0.0039915247
22	0xbca889eb	-0.020573577
23	0x3d9714d6	0.07377021
24	0x3b8e865a	0.004349512
25	0x3c95953a	0.018259633
26	0xbb8d95f6	-0.0043208553
27	0x3c815159	0.01578586
28	0xbdadf769	-0.08494455
29	0x3ca4a52b	0.02009829
30	0xbc909f82	-0.017654184
31	0x3b0b50f0	0.002125796
32	0x3cf46a45	0.02983583
33	0x3d15dbff	0.036586758
34	0xbd347c93	-0.044064116
35	0x3d878f2b	0.06619104
36	0xbcc7c143	-0.024384147
37	0x3beddbc7	0.0072588655
38	0x3d8e57ce	0.06950341
39	0x3c558df8	0.013034336
40	0x3ca0388a	0.01955821
41	0xbcb7f31c	-0.02245479
42	0xbd63039c	-0.055423364
43	0x3c6d48ec	0.014482718
44	0x3cae0c6b	0.021246156
45	0xbd710fc4	-0.058852926
46	0x3c50d7e4	0.012746785
47	0x3dbc7823	0.09202602
48	0xbd4ca1bb	-0.049958926
49	0x3dc5b1a6	0.096530244
50	0x3ce09ca2	0.027418438
51	0xbcec7b45	-0.028867373
52	0x3d48514f	0.048905667
53	0xbc7aab3c	-0.0152996145
54	0x3da3d395	0.079993404
55	0xbd03586d	-0.03206675
56	0x3d095855	0.033531506
57	0xbd755558	-0.059895843
58	0xbcdb7672	-0.026789878
59	0xbce15728	-0.02750738
60	0xbca04cc7	-0.01956786
61	0xbc0625f8	-0.008187763
62	0x3daa45c8	0.08314091
63	0xbc9b5da7	-0.018965555
64	0x3d1b29cb	0.037881654
65	0x3d59d3d2	0.053180523
66	0x3d2e28c2	0.04251934
67	0xb7e932e8	-2.779947e-05
68	0x3c6337e5	0.013868307
69	0xbd716958	-0.058938354
70	0xbb9ae5c7	-0.0047270986
71	0xbd17dbd2	-0.03707487
72	0x3de0631b	0.10956403
73	0x3cbeed0a	0.023306388
74	0xbbfc4433	-0.0076985597
75	0xbbbc8593	-0.005753228
76	0x3d692462	0.056919463
77	0x3da8760b	0.0822564
78	0xbd3fa888	-0.046791583
79	0x3c1b10c3	0.0094644455
80	0x39f5f4cf	0.00046912438
81	0xbda9a512	-0.08283438
82	0x3c9fb6e9	0.019496398
83	0x3cb52174	0.022110678
84	0xbced86c9	-0.028994935
85	0x3d3931c6	0.045213483
86	0xbd6061b6	-0.054780684
87	0xbd9aacc3	-0.07552483
88	0xbd6d54d1	-0.057942215
89	0xbc9a68d8	-0.018848822
90	0xbcd79c22	-0.026319567
91	0xbd0e7344	-0.034777895
92	0xbd5b89f0	-0.053598344
93	0x3c4362ed	0.011925441
94	0xbc7b11ae	-0.015324039
95	0xbd8b940e	-0.068153486
96	0xbd500e3a	-0.050794818
97	0x3d50882b	0.05091111
98	0xbda192b9	-0.07889313
99	0x3d40fea9	0.047117863
100	0x3d0852c9	0.033282075
101	0x3d94e9e7	0.07271176
102	0xbd96ed72	-0.07369508
103	0x3d2b2b74	0.041789487
104	0x3d187b81	0.037227158
105	0xbc135686	-0.008992797
106	0xbbea3a77	-0.007148083
107	0xbda706bd	-0.08155582
108	0x3d9ad3cd	0.07559929
109	0x3cc3c74c	0.023898743
110	0x3d6f7000	0.05845642
111	0xbc2e7e41	-0.010650218
112	0xbd87c0d5	-0.06628577
113	0x3d8bff13	0.06835761
114	0xbd936dfe	-0.07198714
115	0x3d052b5d	0.032512058
116	0x3c278dd5	0.0102266865
117	0x3d62244a	0.05521039
118	0xbc874325	-0.01651151
119	0xbd62583f	-0.05525994
120	0xbd47d7d7	-0.048789825
121	0xbcae67f6	-0.021289807
122	0x3c05a571	0.00815712
123	0x3ca4214d	0.02003541
124	0x3d158d63	0.03651179
125	0xbd04071a	-0.032233335
126	0x3d362e9d	0.044478048
127	0xbc94e720	-0.018176615

conv4.weight f4 [256, 128, 3]
0	0xbd1b0d17	-0.03785428
1	0x3b8ff78d	0.004393524
2	0xbbe048f8	-0.006844636
3	0xbd8e2678	-0.06940931
4	0x3c323723	0.010877403
5	0xbd146062	-0.03622473
6	0x3de331e2	0.11093499
7	0x3d327e69	0.043577585
8	0xbe457662	-0.1928344
9	0xbb861c5e	-0.004092737
10	0xbd11e676	-0.035620175
11	0x3d899a24	0.06718853
12	0x3a169c0a	0.00057452975
13	0xbc3fe258	-0.011711679
14	0xbcbce241	-0.023057105
15	0xbc882598	-0.016619489
16	0x3cda4cbf	0.026647924
17	0x3d1d9273	0.038469743
18	0xbc11656f	-0.008874281
19	0x3d3c4ed4	0.045973614
20	0xbd8c28fc	-0.06843755
21	0x3cdd5dfe	0.027022358
22	0xbc9c44df	-0.019075809
23	0x3d4dcac8	0.050242215
24	0x3c8cd7f3	0.017192816
25	0xbbf4d0d3	-0.007471183
26	0x3be20c4b	0.006898438
27	0xbda08057	-0.07836979
28	0x3d43231e	0.047640912
29	0xbc22adc8	-0.009929128
30	0x3c8281e1	0.015931072
31	0x3c98edec	0.018668137
32	0x3d195432	0.03743381
33	0xbbf0d75a	-0.0073498907
34	0x3da7d569	0.08195002
35	0xbb8e8893	-0.004349777
36	0x3ccdc484	0.02511812
37	0x3da87a92	0.082265034
38	0x3a85e398	0.0010214923
39	0x3cd571f0	0.026055306
40	0x3cfe8704	0.03107024
41	0x3cf55063	0.029945558
42	0xbd3ca7bc	-0.0460584
43	0xbc91231d	-0.017716939
44	0x3bea88be	0.007157414
45	0x3c7b4d4a	0.015338251
46	0xbac9cad7	-0.0015395534
47	0x3cb553e8	0.022134736
48	0xbc51f9a1	-0.012815864
49	0xbd0e474b	-0.03473596
50	0xbc21cd03	-0.009875539
51	0xbd65f052	-0.05613739
52	0x3bcccda2	0.0062500993
53	0x3d4f6f57	0.05064329
54	0x3d4ac9ee	0.04950898
55	0x3d41aae7	0.047282126
56	0xbd6477eb	-0.055778425
57	0x3c6df0ba	0.014522726
58	0x3ca79696	0.020457547
59	0x3c14f59e	0.009091763
60	0xbdb67ed2	-0.08910908
61	0x3d7808e6	0.06055536
62	0xbd953d49	-0.0728708
63	0x3c8f759c	0.017512135
64	0x3d0937da	0.03350053
65	0x3c501ec3	0.012702647
66	0xbcc5e44b	-0.02415671
67	0x3d43c6de	0.047797076
68	0x3c5df509	0.01354719
69	0x3d14256b	0.036168497
70	0xbafdc157	-0.0019359988
71	0xbcc38d63	-0.02387113
72	0xbd2dbfad	-0.042419124
73	0xba15f5b1	-0.000572051
74	0xbd8b91e2	-0.06814934
75	0x3c22f888	0.00994695
76	0x3cf018c2	0.02930868
77	0x3d3be834	0.045875743
78	0xbde0de6b	-0.10979923
79	0xbd908f9e	-0.07058643
80	0xbdda0430	-0.1064533
81	0x3b9f798c	0.0048667844
82	0x3d63d641	0.05562425
83	0x3c879782	0.016551737
84	0x3d30d2a1	0.04316962
85	0xbdcfb2bf	-0.10141515
86	0x3dc68e87	0.09695154
87	0xbca2b042	-0.019859437
88	0x3dbcc99b	0.09218141
89	0x3c938255	0.018006483
90	0x3d519a2c	0.05117242
91	0x3d5ff316	0.054675184
92	0x3d5d6567	0.054051783
93	0xbda5e085	-0.08099464
94	0x3d82bf87	0.06384187
95	0x3bcd9da4	0.0062748957
96	0x3bd2fde3	0.006438957
97	0x3d596795	0.0530773
98	0x3cfea3dc	0.031083994
99	0xbdf85773	-0.121260546
100	0xbbbce38a	-0.0057644295
101	0xbe11b058	-0.14227426
102	0xbbe49b7f	-0.0069765444
103	0x3d44a5be	0.048009627
104	0xbdfb09b3	-0.12257709
105	0x3ce3501f	0.027748166
106	0xbceaeaa5	-0.02867634
107	0x3cc226d3	0.023700153
108	0x3d91d796	0.07121198
109	0x3cd42726	0.025897574
110	0xbcacb113	-0.02108053
111	0xbd849c1b	-0.06475087
112	0x3c9edf90	0.019393712
113	0xbc8fb37f	-0.017541645
114	0xbdebf7ff	-0.11521911
115	0x3cbd9e5f	0.023146806
116	0x3d878014	0.06616226
117	0x3cc37605	0.023859987
118	0x3d23da05	0.04000284
119	0x3ca85d2c	0.02055224
120	0x3a4dc58d	0.0007849567
121	0x3d3dc56e	0.04633086
122	0xbbe278be	-0.0069113662
123	0x3c08800f	0.008331313
124	0xbdbf647c	-0.09345338
125	0x3c9f32b7	0.019433362
126	0x3ddcfa4f	0.1078993
127	0x3d00754b	0.03136186
128	0x3cad10e5	0.02112622
129	0xbce02a48	-0.027363911
130	0xbcd95c50	-0.026533276
131	0x3ce47209	0.027886407
132	0x3d01d1c9	0.031694207
133	0xbd065862	-0.032799132
134	0xbc6bc02d	-0.01438908
135	0xbd9783c6	-0.07398181
136	0xbc6dd362	-0.01451573
137	0x3c70e9e5	0.014704202
138	0xbc136aef	-0.008997663
139	0xba9956a6	-0.0011698797
140	0xbc934e0e	-0.017981555
141	0x3d761b0b	0.060084384
142	0xbd9b2daf	-0.07577073
143	0xbd9d1714	-0.076704174
144	0x3cd57e3b	0.026061168
145	0x3d316704	0.043311134
146	0x3d1e34f3	0.038624715
147	0xbc7802f3	-0.015137422
148	0x3c99f1b1	0.018792005
149	0xbd54ee77	-0.05198523
150	0xbcca26c7	-0.024676694
151	0x3d1a8500	0.037724495
152	0xbd03d984	-0.03218986
153	0x3d06b6ec	0.03288929
154	0x3cd34bb8	0.025792941
155	0x3be40034	0.006958032
156	0x3d492aa5	0.049112935
157	0x3c56f09f	0.013118892
158	0x3d819670	0.06327522
159	0x3cc77bbc	0.024350993
160	0x3b28d750	0.0025763102
161	0xbcfff375	-0.031244019
162	0x3d84d4af	0.06485879
163	0xbc0d10a1	-0.008609922
164	0x3d1a945a	0.037739135
165	0x3c1dc841	0.009630264
166	0x3d2c24f7	0.04202744
167	0xbcbe4fee	-0.023231473
168	0xbbc1e2dc	-0.0059169363
169	0x3ca86a43	0.020558482
170	0xbcc5a361	-0.024125757
171	0xbd26a681	-0.040686134
172	0x3d8b4af5	0.06801406
173	0xbb8f4ece	-0.004373408
174	0x3d57e28d	0.05270629
175	0xbc172a81	-0.009226442
176	0x3d94fe14	0.07275024
177	0xbd103db7	-0.035215106
178	0x3c9a7c87	0.018858207
179	0xbd135acb	-0.03597526
180	0xbe203018	-0.15643346
181	0xbd875061	-0.06607128
182	0xbd691c30	-0.056911647
183	0xbcc7d7e0	-0.02439493
184	0x3cbe1ad7	0.023206158
185	0x3d1064c1	0.035252336
186	0x3d90ee3f	0.07076692
187	0xbbccd987	-0.006251517
188	0x3d323c69	0.043514643
189	0xbdbe2da7	-0.09286051
190	0x3d81b411	0.06333173
191	0xbd62ee9a	-0.05540333
192	0xbcb3d8c1	-0.021953942
193	0xbcc8b27a	-0.024499167
194	0xbd91082b	-0.07081636
195	0xbbd5c8b6	-0.0065241707
196	0x3d8eb67d	0.069684006
197	0x3c3a4793	0.011369604
198	0x3ac29a92	0.0014847091
199	0x3d2c53d9	0.04207215
200	0xbab282cd	-0.0013619304
201	0x3d52ee8c	0.051497027
202	0x3d2dd88f	0.042442854
203	0x3d385456	0.045002304
204	0xbcb159e8	-0.021649316
205	0x3db76b94	0.08956066
206	0xbc3fe41d	-0.011712101
207	0x3cd1201d	0.025528008
208	0x3da1fdf1	0.079097636
209	0xbd8f61f7	-0.07001107
210	0xbda8420a	-0.08215721
211	0x3cac576f	0.021037785
212	0xbcdc1e47	-0.026869906
213	0x3d13af5a	0.0360559
214	0x3da7cc8d	0.08193312
215	0xbd802e2b	-0.06258806
216	0xbd7b65de	-0.061376445
217	0x3d1d8be7	0.0384635
218	0xbc84ccaa	-0.016210873
219	0xbd265825	-0.040611405
220	0xbc92f3a4	-0.017938443
221	0x3caccdf1	0.021094294
222	0xbdca4e9a	-0.09878273
223	0xbd667134	-0.056260303
224	0xbda4cf45	-0.08047346
225	0x3b38ce90	0.0028199293
226	0x3b69b57c	0.0035661152
227	0xbbdfd010	-0.006830223
228	0xbbe9776d	-0.0071248324
229	0x3d094bc5	0.033519525
230	0x3d4b3033	0.049606513
231	0x3ddec470	0.10877311
232	0xbb8a8570	-0.004227333
233	0xbd00c9bf	-0.0314424
234	0xbd703fdc	-0.05865465
235	0x3c921aa6	0.017834973
236	0xbd6374eb	-0.055531424
237	0xbd8a1234	-0.06741753
238	0x3db027a2	0.08601309
239	0x3befeb3b	0.007321743
240	0xbd55597a	-0.052087285
241	0x3b6f1fc1	0.0036487433
242	0xbd89886b	-0.06715473
243	0x3d4e3866	0.050346754
244	0x3cfd2930	0.030903429
245	0xbd1c22c4	-0.038119093
246	0x3d265856	0.040611587
247	0x3d0fc386	0.035098575
248	0x3d150492	0.03638131
249	0x3b9bfc65	0.0047603124
250	0xbcbd5e0c	-0.023116134
251	0xbc9cee3b	-0.019156566
252	0x3cb36074	0.021896578
253	0x3ce7b888	0.028286234
254	0x3d008088	0.031372577
255	0xbdcb79c6	-0.09935336

conv4.bias f4 [256]
0	0x3d3ca70c	0.046057746
1	0xbd4d30ec	-0.050095484
2	0x3ce62fae	0.028098907
3	0xbd461df3	-0.048368406
4	0xbb9c3003	-0.0047664656
5	0x3c2038a8	0.009779133
6	0xbc916fe2	-0.017753545
7	0xbd4a7e6f	-0.049436983
8	0xbd35f079	-0.044418786
9	0xbcb2885c	-0.021793537
10	0xbb07a232	-0.0020696041
11	0x3d73fef0	0.0595693
12	0x3b96bf51	0.0046004434
13	0x3d1c245a	0.038120605
14	0x3d25b9e5	0.040460486
15	0xbd22be05	-0.039731998
16	0xbbffff45	-0.007812413
17	0xbd4de1b4	-0.050264075
18	0x3d0d5b91	0.034511153
19	0xbd5114a1	-0.051045064
20	0xbb63e663	-0.0034774772
21	0x3cc9505d	0.024574453
22	0xbc4abbf8	-0.012373917
23	0xbcd1baa3	-0.02560169
24	0xbd67d49f	-0.056599256
25	0xbd25da2a	-0.04049126
26	0xbd123c3b	-0.03570197
27	0xbd1b9c95	-0.037991125
28	0xbcf9c897	-0.030491157
29	0x3dbfed54	0.093714386
30	0x3c6e94a9	0.0145618105
31	0xbd2d00d8	-0.042237133
32	0x3c599eed	0.01328252
33	0xbd92504e	-0.07144223
34	0x3cbab52d	0.02279147
35	0xbc0d5c8c	-0.008628022
36	0x3db50e10	0.08840573
37	0x3c941ec7	0.018081082
38	0x3c968c95	0.018377582
39	0xbd17c3ec	-0.03705208
40	0xbc14f1a8	-0.009090818
41	0xbbf86582	-0.00758046
42	0x3d73d048	0.059524804
43	0xbccf7e33	-0.025328731
44	0xbbadaa98	-0.0052998774
45	0xbce3ddf3	-0.027815795
46	0xbd41c2a3	-0.04730476
47	0xbc4da5d5	-0.0125517445
48	0xbbe5ab13	-0.007008919
49	0xbd241b81	-0.040065292
50	0xbb0514d4	-0.0020306604
51	0xbccea230	-0.025223821
52	0x3d2ec53c	0.042668566
53	0x3c704385	0.014664535
54	0x3bcd3329	0.0062622023
55	0x3cbb3ebc	0.022857063
56	0x3d0dcbb7	0.034618106
57	0xbc6520e7	-0.013984895
58	0xbd07265b	-0.032995563
59	0xbc2d9e76	-0.010596862
60	0x3c98b482	0.01864076
61	0xbcf5ba2d	-0.029996002
62	0x3cf3bae0	0.029752195
63	0x3d2f0bcb	0.042735856
64	0xbced125c	-0.028939418
65	0xbcda80ab	-0.026672682
66	0xbc8578d1	-0.016292961
67	0x3c8c6cc2	0.017141704
68	0x3ca559a7	0.020184351
69	0x3cd15a62	0.025555793
70	0x3bc93a10	0.006140955
71	0xbd19b701	-0.03752804
72	0xbd402d22	-0.046918042
73	0x3dc91db9	0.09820122
74	0x3c425e9b	0.011863376
75	0x3cd4df09	0.025985258
76	0x3da7fe38	0.08202785
77	0xbb45cf37	-0.0030183324
78	0xbaa8e996	-0.0012886997
79	0xbd645be2	-0.05575169
80	0x3d0877cb	0.03331737
81	0xbd39cccc	-0.045361325
82	0xbd9228d9	-0.07136697
83	0x3d90d9c0	0.070727825
84	0x3d64e948	0.055886537
85	0xbd3c8006	-0.04602053
86	0xbb229a0f	-0.0024811064
87	0x3cfd73bc	0.030938976
88	0xbc00d061	-0.007862181
89	0x3d8b6ca2	0.068078294
90	0xbbd7da95	-0.0065873363
91	0x3c0266e6	0.007959103
92	0xbd85ddda	-0.065364555
93	0xbcefae80	-0.029258013
94	0x3d1cdb5a	0.038295127
95	0xbd24a7f1	-0.040199224
96	0xbcbe033b	-0.0231949
97	0x3cf8f5a6	0.030390572
98	0xbcd1f0d5	-0.025627533
99	0x3db61f13	0.08892646
100	0x3c93b1ec	0.018029176
101	0x3d175f53	0.036956143
102	0x3c39ec43	0.011347833
103	0xbd0c9ef5	-0.03433128
104	0xbc439cd3	-0.011939245
105	0xbcbdf9f4	-0.023190476
106	0xbca99d44	-0.020704873
107	0xbc2fb32b	-0.010723869
108	0xbd372f6b	-0.044722956
109	0x3b9ddb0f	0.0048173736
110	0x3cb1b6a6	0.021693539
111	0x3dd61f74	0.10455218
112	0x3c6f4bd3	0.01460548
113	0x3a879535	0.001034415
114	0x3b29c4d7	0.002590468
115	0x3caf48da	0.021397043
116	0xbd5f2ba2	-0.05448497
117	0x3cb1aab7	0.021687848
118	0x3d6c2d21	0.057660226
119	0xbd4dea4f	-0.050272282
120	0x3c69a43f	0.014260351
121	0xbd541939	-0.051781867
122	0x3ab61b61	0.0013893658
123	0x3c7ba194	0.015358347
124	0xbb8b5fb0	-0.00425335
125	0xbd051fd3	-0.032501053
126	0xbdaca50d	-0.084299184
127	0xbd1e0757	-0.03858122
128	0xbd509e30	-0.05093211
129	0xbd7a697b	-0.06113575
130	0xbd63351f	-0.055470582
131	0xbd8d8859	-0.06910772
132	0xbd3efc9c	-0.046627626
133	0xb8b1d592	-8.479798e-05
134	0xbc90db26	-0.017682623
135	0x3d09248e	0.033482127
136	0xbc6c0935	-0.014406492
137	0xbcbaee60	-0.022818744
138	0x3d55efd5	0.052230675
139	0x3d25a9c9	0.040445123
140	0x3d26b51c	0.040700063
141	0x3ca5c7a4	0.020236798
142	0x3d33ebbe	0.043925993
143	0x3d228e96	0.03968676
144	0x3beeb27c	0.0072844606
145	0x3c2581c8	0.010101743
146	0x3cb8f404	0.022577293
147	0x3b2dae17	0.002650147
148	0xbc8f5d09	-0.017500417
149	0x3b97bb82	0.004630507
150	0x3c303c6c	0.010756593
151	0xbc14fb45	-0.00909311
152	0xbd22e8d3	-0.03977282
153	0xbd327a2c	-0.043573543
154	0xbd2c6d3f	-0.042096373
155	0xbd669d24	-0.056302205
156	0xbcdef92e	-0.027218428
157	0xbd6ba88d	-0.05753379
158	0xbd409035	-0.047012527
159	0xbd6f5845	-0.05843379
160	0xbcc73df6	-0.024321537
161	0x3c68e761	0.014215321
162	0xbd470dd8	-0.048597187
163	0x3d55233c	0.052035555
164	0x3bb45c24	0.005504148
165	0x3c79f10c	0.015255224
166	0x3c86109f	0.016365347
167	0x3d36e946	0.04465606
168	0x3d712206	0.058870338
169	0x3c12ef81	0.008968235
170	0x3d54f0c5	0.05198743
171	0x3dab4c7a	0.08364196
172	0xbd046cf9	-0.032330487
173	0x3c95f643	0.018305903
174	0xbb16626f	-0.0022946855
175	0x3d68d0b9	0.05683968
176	0x3d398110	0.0452891
177	0x3d59e532	0.053197093
178	0xbd71c8f9	-0.059029553
179	0xbd03bbdb	-0.032161575
180	0x3bbe8481	0.0058141355
181	0xbcf821e2	-0.030289594
182	0xbd0c72e6	-0.034289263
183	0xbbf78396	-0.007553528
184	0xbcf681e9	-0.030091243
185	0x3c344d61	0.011004777
186	0x3d82321c	0.06357214
187	0xbbb372c4	-0.0054763276
188	0x3cc8902e	0.024482813
189	0x3d87cfaa	0.06631406
190	0x3b899421	0.0041985665
191	0x3d34828a	0.044069804
192	0x3cee760c	0.029109024
193	0x3d368097	0.044556227
194	0xbd25512a	-0.040360607
195	0xbd083bfa	-0.033260323
196	0xbceb6bfe	-0.028738018
197	0x3c928895	0.017887393
198	0x3d259e9f	0.040434476
199	0xbd15e804	-0.03659822
200	0x3b0f3f2b	0.002185772
201	0x3d9bac0e	0.07601176
202	0x3ce85300	0.02835989
203	0x3c348127	0.01101712
204	0x3d356631	0.04428691
205	0x3a9e13ec	0.001206038
206	0x3d6641bc	0.056215033
207	0x3d20c593	0.03925092
208	0xbcb7281f	-0.022357998
209	0xbbfd185e	-0.007723852
210	0x3c2cfbe4	0.010558102
211	0x3ceb8864	0.02875156
212	0xb9dcd660	-0.00042121392
213	0x3d023365	0.031787295
214	0xbcd63eb0	-0.026152939
215	0xbc314297	-0.010819099
216	0xbc788a3e	-0.015169678
217	0x3cd1ab32	0.025594328
218	0x3c54d31e	0.012989787
219	0xbd1ae1f2	-0.037813134
220	0xbd9b68d8	-0.07588357
221	0x3d4c1930	0.04982871
222	0xbcad7fd6	-0.021179121
223	0xb8ae4f81	-8.311775e-05
224	0xbc515eb5	-0.012778928
225	0x3b27825c	0.0025559878
226	0x3b43a4f3	0.0029852956
227	0x3d879666	0.06620483
228	0x3d621614	0.055196837
229	0x3c2f2955	0.010691007
230	0x3dc010b4	0.09378186
231	0xbd1e7955	-0.03868993
232	0xbc48cc1f	-0.0122556975
233	0x3c4f4243	0.012650075
234	0x3cbb2a8b	0.022847435
235	0xbce65224	-0.02811534
236	0x3d6064e0	0.054783702
237	0x3b71c0eb	0.003688867
238	0x3bcde1be	0.006283014
239	0xbcc6bf54	-0.024261154
240	0x3c4d397c	0.012525912
241	0x3d31bc06	0.043392204
242	0xbae9eac4	-0.0017846455
243	0x3d50f873	0.05101819
244	0x3d10c93b	0.03534816
245	0x3d160a79	0.03663108
246	0xbcba0fa3	-0.022712534
247	0x3ca4a1a4	0.020096608
248	0xbcd291ce	-0.02570429
249	0x3d74b009	0.059738193
250	0x3d474fa5	0.04865994
251	0x3a029dc5	0.0004982616
252	0xbc7274f2	-0.01479839
253	0xbd1131a7	-0.035447743
254	0x3d8f0f36	0.06985323
255	0xbcb45976	-0.022015315

fc.weight f4 [2, 256]
0	0xbd88eb60	-0.06685519
1	0x3c8f1fae	0.01747116
2	0xbe206763	-0.15664439
3	0xbd4312b7	-0.04762527
4	0x3db03ec9	0.08605725
5	0x3d149999	0.036279295
6	0xbd609c64	-0.054836646
7	0xbc819620	-0.015818655
8	0x3d55a18e	0.052156024
9	0x3be861f6	0.007091756
10	0xbd34a83c	-0.044105753
11	0x3d69b615	0.057058413
12	0xba946fe5	-0.0011324851
13	0x3a8dd206	0.0010820038
14	0xbd2da9e1	-0.042398337
15	0x3cb048c2	0.021519069
16	0xbd9de7b1	-0.07710207
17	0x3bc14d17	0.0058990824
18	0xbd600bf9	-0.054698918
19	0x3d1b0946	0.03785064
20	0xbd67a24b	-0.05655126
21	0x3ca3e195	0.020005027
22	0xbbade13d	-0.0053063915
23	0x3db210cd	0.08694611
24	0x3c96f057	0.01842515
25	0xbdac3118	-0.084078014
26	0x3d9227ae	0.071364745
27	0x3d006774	0.03134866
28	0xbc50b284	-0.012737874
29	0xbe15f42a	-0.14643922
30	0xbc5a2363	-0.013314101
31	0x3db40b2e	0.08791195
32	0xbb725861	-0.0036978947
33	0x3cb36d95	0.021902839
34	0xbd00882e	-0.03137987
35	0xbd1c60b9	-0.03817818
36	0x3e6f9b8c	0.2339918
37	0xbdd84ece	-0.10561906
38	0xbd886b46	-0.06661086
39	0x3d2fc489	0.04291204
40	0xbcb1ac50	-0.02168861
41	0xbc9c5dcc	-0.019087695
42	0xbe393b32	-0.18088987
43	0x3d57b56c	0.05266325
44	0x3d91c9d3	0.07118573
45	0xbccb8525	-0.024843762
46	0xbcbcb420	-0.023035109
47	0xbbc9daf9	-0.006160137
48	0x3d4ffe7f	0.050779816
49	0x3d1a30f7	0.037644353
50	0xbcf94ebd	-0.030433053
51	0xbd825984	-0.0636473
52	0x3e3efd2f	0.1865127
53	0xbdd01db7	-0.10161918
54	0xbd59b46e	-0.053150587
55	0xbcd03e03	-0.025420194
56	0x3d782c67	0.06058922
57	0xbd8f7195	-0.07004086
58	0x3d4fbcde	0.050717227
59	0x3dfa908f	0.122346036
60	0x3da277bb	0.07932993
61	0x3c940b58	0.018071815
62	0xbcd076c0	-0.02544725
63	0xbe0328b5	-0.12808497
64	0xbd6b6a04	-0.05747415
65	0x3d3c856f	0.04602569
66	0x3d311910	0.043236792
67	0x3d52a688	0.051428348
68	0x3b88a0e8	0.004169572
69	0xba8ff12b	-0.0010981908
70	0x3c6e8487	0.014557964
71	0xbd75dc36	-0.060024463
72	0xbd3310db	-0.043717247
73	0xbe61106a	-0.21978918
74	0xbd9ac883	-0.07557776
75	0xbe241ed0	-0.16027379
76	0xbe1a390d	-0.15060826
77	0xbc2fec8c	-0.0107375495
78	0xbd51594b	-0.051110547
79	0x3d23dc99	0.0400053
80	0xbd0dd610	-0.034627974
81	0x3cc27e94	0.023741998
82	0x3d2da752	0.042395897
83	0xbdf4498b	-0.1192809
84	0x3e54b11d	0.20770688
85	0xbd012fe2	-0.031539805
86	0x3d02ac49	0.031902585
87	0xbd40d147	-0.047074582
88	0xbd631276	-0.055437528
89	0xbe24ed1d	-0.16106077
90	0xbdd04d93	-0.10171046
91	0xbd253a6a	-0.04033891
92	0xbe0945af	-0.13405488
93	0xbc1f31a1	-0.009716422
94	0xbd717d3b	-0.05895732
95	0xbd09cebc	-0.033644423
96	0x3d4cf4b1	0.050038043
97	0x3db63611	0.08897031
98	0xbd1db0b0	-0.03849858
99	0x3e5e3573	0.21700077
100	0xbd4f464e	-0.050604157
101	0xbde38877	-0.11110013
102	0xbd466e03	-0.04844476
103	0xbd61ecd0	-0.055157483
104	0x3c2952a5	0.010334645
105	0x3e2cc20b	0.16870897
106	0x3d0fe95d	0.035134662
107	0x3e26299c	0.1622681
108	0xbd2e0b27	-0.042491104
109	0x3d8a868a	0.067639425
110	0xbc952e13	-0.018210446
111	0xbe5c658e	-0.21523115
112	0xbbd769e4	-0.0065739024
113	0x3d8ecd3a	0.069727376
114	0x3d4a1ef3	0.04934592
115	0x3b537b0c	0.0032269387
116	0x3ce262db	0.027635029
117	0x3d98e856	0.074661896
118	0x3e0350ec	0.12823838
119	0x3d5ea1ea	0.054353632
120	0x3d8002ef	0.062505595
121	0x3d00e06b	0.03146402
122	0x3ce63dc5	0.028105626
123	0xbbd74f70	-0.006570749
124	0x3d1028ed	0.03519528
125	0x3d567306	0.05235579
126	0xbdb2aa9f	-0.0872395
127	0xbd93e489	-0.07221324
128	0x3cc1f2c7	0.023675336
129	0xb9ea07e5	-0.0004463784
130	0xbcfee448	-0.031114712
131	0x3d3808e3	0.04493035
132	0xbd586b63	-0.052836787
133	0xbe41aeaf	-0.18914293
134	0xbd3a39c4	-0.045465246
135	0x3d6c29ca	0.05765704
136	0xbcdc8c3a	-0.026922334
137	0xbd37c74a	-0.04486779
138	0x3d46bb04	0.048518196
139	0x3b544136	0.0032387502
140	0x3d34c8de	0.044136874
141	0x3e3599a4	0.1773439
142	0x3dee6b4b	0.11641558
143	0xbd190dc4	-0.037366644
144	0x3d778a7d	0.060434807
145	0x3d0dade8	0.034589678
146	0x3d72483c	0.05915092
147	0x3cb78b48	0.022405282
148	0xbd801c8c	-0.06255445
149	0x3c26c00b	0.010177623
150	0x3bf4c76d	0.0074700625
151	0x3cc8a61b	0.024493268
152	0xbd2a3fb2	-0.04156465
153	0xbb392e4d	-0.0028256357
154	0xbd43b627	-0.047781136
155	0xbd36f06b	-0.044662874
156	0xbd6894a1	-0.05678237
157	0xbd54ac5c	-0.051922187
158	0x3d90a261	0.07062221
159	0xbbc079fa	-0.0058739157
160	0xbd65d28f	-0.056109007
161	0xbb420536	-0.0029605157
162	0x3cef5d19	0.029219197
163	0x3dad24b1	0.08454264
164	0xbd90ae72	-0.07064523
165	0xbd820ea6	-0.0635045
166	0xbd243d29	-0.04009739
167	0x3d58efd6	0.0529631
168	0x3d1acc87	0.03779271
169	0xbd30e9ef	-0.043191846
170	0x3d02bee8	0.031920344
171	0x3e6004c6	0.21876821
172	0xbd4dd018	-0.05024728
173	0x3e8658fa	0.2623976
174	0xbd9db30d	-0.07700167
175	0xbe618776	-0.2202433
176	0x3d85b5e2	0.06528832
177	0xbc25488b	-0.010088096
178	0x3cd90d69	0.026495652
179	0xbd808820	-0.06275964
180	0xbe00b6c0	-0.12569714
181	0x3dae356f	0.085062854
182	0xbc11ca16	-0.008898279
183	0x3c2aa749	0.01041586
184	0xbd0d71a1	-0.034532193
185	0xbe395d51	-0.18102004
186	0xbe47f982	-0.19528773
187	0xbda78a15	-0.08180634
188	0xbd0b6113	-0.034028124
189	0x3e4720f9	0.19446172
190	0x3d77284e	0.060341172
191	0xbd8a0e2e	-0.06740986
192	0xbd352963	-0.044228923
193	0x3e2cab15	0.16862138
194	0xbd90633b	-0.07050177
195	0xbda456a8	-0.08024341
196	0x3d17804d	0.03698759
197	0x3e1c9f41	0.15295126
198	0xbe4a7184	-0.19769865
199	0xbc66b922	-0.014082225
200	0xbc25999f	-0.010107427
201	0xbe33be63	-0.17553096
202	0x3be00d2d	0.006837508
203	0xbe369ab0	-0.17832446
204	0x3d3252f7	0.043536153
205	0xbccd23ae	-0.025041427
206	0x3d8791c3	0.06619599
207	0xbce46d72	-0.027884219
208	0x3cf532b0	0.029931396
209	0x3dfbb51d	0.12290404
210	0x3d2d819d	0.042359937
211	0x3d9ce808	0.07661444
212	0xbd675c88	-0.05648473
213	0x3d54f71b	0.05199347
214	0xbc3009ff	-0.010744571
215	0xb9f6c0bc	-0.00047064375
216	0xbc639fea	-0.013893107
217	0xbd04a522	-0.032384045
218	0xbd256cef	-0.04038709
219	0xbc948d59	-0.018133806
220	0xbc802cca	-0.015646357
221	0xbe408635	-0.18801196
222	0x3d3f2853	0.046669316
223	0xbc96ed7e	-0.018423792
224	0xbd6f415e	-0.05841195
225	0x3c5e8f0a	0.013583908
226	0x3cfb358d	0.030665183
227	0x3e4b5c65	0.19859464
228	0x3d93a252	0.072086945
229	0xbd2bd343	-0.04194952
230	0xbe5e6c0d	-0.21720906
231	0xbd3eba12	-0.04656417
232	0xbd907b10	-0.07054722
233	0xbd5e809e	-0.054321878
234	0xbce8bb64	-0.028409667
235	0x3cbdec8b	0.023184082
236	0x3db52277	0.08844464
237	0xbd23e7b9	-0.04001591
238	0x3c806833	0.015674686
239	0x3d114076	0.035461865
240	0xbd25ad98	-0.040448755
241	0xbe5b53e5	-0.21418722
242	0x3d8d6ccf	0.06905519
243	0x3d22d934	0.039757922
244	0xbd2f9fc6	-0.04287698
245	0x3ccce2c7	0.02501048
246	0xbd8db455	-0.06919161
247	0xbcc21a70	-0.023694247
248	0xbd8a2062	-0.06744458
249	0x3e401d4e	0.18761179
250	0x3d96b6e6	0.07359104
251	0xbc8fc94d	-0.017552042
252	0xbbf4ae4c	-0.007467067
253	0x3b09cf7e	0.0021028216
254	0x3e684592	0.22682789
255	0xbc2064ac	-0.009789627

fc.bias f4 [2]
0	0x3ce8e5f0	0.028429955
1	0xbaed7067	-0.0018115164
